checkpoints/srcnn_best.pth (torch, 539170 bytes, 18 tensors)

conv1.weight f4 [128, 3, 9, 9]
-0.043770477 0.061652016 0.04092575 -0.02238207 0.0077287634 -0.020116072 -0.0010164918 -0.05210373
-0.018274758 -0.047616046 0.0010468102 -0.038732935 0.06174817 0.061409157 0.045688547 0.056716736
0.058731843 0.04045114 0.0018316205 0.06700346 0.021818202 0.010028819 0.005740088 -0.04500243
0.061560106 0.04310195 -0.042460445 0.062212914 -0.03659668 -0.01633806 0.048074424 -0.06230988
0.015201402 0.021785129 0.021846872 0.037617985 0.024657642 0.02588987 -0.0437395 -0.0044196215
-0.02109553 -0.062691316 -0.041789092 -0.021321591 0.0077963434 -0.010658109 0.031151328 -0.037187036
-0.024736108 -0.047697138 0.015154275 0.061697114 -0.022542955 -0.029620938 0.008876949 -0.049886797
0.040925443 0.021876086 -0.02090189 0.065404855 0.058588263 -0.021082683 0.014048861 0.05543791
-0.020300796 -0.014367252 -0.028103592 0.010973936 -0.050783906 0.043139808 0.0043898374 -0.06424027
-0.04320375 -0.0060836477 -0.0024003335 0.03579728 -0.04315355 -0.004038118 -0.045853768 -0.05159185
0.024315173 0.023796856 -0.003425074 -0.032630973 0.04571561 -0.011122075 -0.037202846 0.062632464
-0.047832657 -0.03492925 0.036320526 0.04893395 -0.032481655 -0.045979906 0.047572073 -0.01856907
-0.0077268556 0.0074922247 0.02539207 0.03605593 -0.021515721 -0.022815634 -0.04458033 0.055202246
0.039691694 0.019720342 -0.045156308 0.036676142 -0.042408656 -0.010377956 -0.025341453 0.036312297
0.016667802 -0.01911872 0.05159617 -0.034503974 -0.042441737 0.049502447 0.010632672 0.021206168
-0.0006948337 -0.05910023 0.035511684 -0.023165273 -0.0033428643 -0.049852863 0.0056368597 -0.013474987
0.03305694 0.025565188 0.0078165 0.055739734 -0.05803254 -0.025884693 -0.0010150728 -0.010221833
0.056122344 -0.04044498 -0.036898557 0.0029098808 -0.046499323 -0.039787285 0.03352495 0.042587977
-0.039971665 0.038045112 0.040586773 0.04740229 0.033783138 0.0047485474 0.00013445839 -0.0029895285
0.044613615 -0.015552562 0.052892134 -0.031103246 -0.060328197 0.005182107 -0.037469503 0.019500423
-0.012917725 -0.04745448 0.06173674 0.042177908 -0.0150589915 0.042478964 -0.0421721 -0.02579333
0.06040131 -0.021168072 -0.006887508 -0.0002099849 -0.04061312 -0.024827851 0.021756629 0.048176516
0.054070413 -0.014826135 -0.033301506 0.033219166 0.008877568 0.039142437 0.0030291004 0.058362
-0.052746173 -0.04771875 -0.015178748 -0.043353062 -0.02146017 0.048972353 0.020692067 -0.017792884
-0.043003142 -0.026654748 -0.028355774 -0.0045505194 -0.016874246 0.0066448078 -0.025423747 -0.019106982
0.031202544 0.043754444 -0.05949089 -0.03237095 -0.055599935 -0.0040318435 0.010511359 -0.014492795
-0.00087673595 -0.0042909584 0.0045088297 0.032674104 0.007754539 -0.041665014 -0.011173036 -0.01979706
0.0244285 -0.014082355 -0.0016824213 0.05713085 0.0329692 0.070266806 -0.055422723 0.065212116
0.009132485 0.034756567 0.062326577 0.031491917 -0.032660056 0.06274943 0.027615188 0.06222296
0.044706848 0.024249084 0.000813338 -0.014043952 -0.038357224 -0.054332413 -0.045753527 0.058543973
-0.043143373 0.024110332 -0.061011914 0.024294587 -0.011662572 0.04185881 0.05607132 -0.043524984
0.014900034 -0.04092772 0.019923246 0.08507402 -0.00037566965 0.054818135 0.044124983 -0.017426245
00000000: ac48 33bd d386 7c3d c2a1 273d 9a5a b7bc
00000010: 9141 fd3b 76ca a4bc ce3b 85ba b96a 55bd
00000020: f2b4 95bc 0b09 43bd 1f35 893a 6da6 1ebd
00000030: a6eb 7c3d 2b88 7b3d ea23 3b3d cf4f 683d
00000040: cd90 703d 18b0 253d fc12 f03a 1c39 893d
00000050: 16bc b23c ea4f 243c 5917 bc3b 7854 38bd
00000060: 7326 7c3d ac8b 303d 01eb 2dbd f8d2 7e3d
00000070: 66e6 15bd 65d7 85bc b0e9 443d a538 7fbd
00000080: 4d0f 793c ba76 b23c 36f8 b23c 5115 1a3d
00000090: d3fe c93c fe16 d43c 3128 33bd 79d2 90bb
000000a0: 88d0 acbc 4e64 80bd 0a2b 2bbd 9eaa aebc
000000b0: 7878 ff3b 599f 2ebc 1231 ff3c 6f51 18bd
000000c0: 61a3 cabc 135e 43bd a349 783c 1db6 7c3d
000000d0: 01ac b8bc 9ca7 f2bc 9f70 113c 1956 4cbd
000000e0: 70a1 273d 7a35 b33c 713a abbc fbf2 853d
000000f0: 3ffa 6f3d 97b5 acbc 322d 663c dd12 633d
00000100: db4d a6bc 9f64 6bbc 8139 e6bc 06cc 333c
00000110: c902 50bd 5eb3 303d a0d8 8f3b 6790 83bd
00000120: 6af6 30bd 5659 c7bb ea4e 1dbb 2ba0 123d
00000130: c7c1 30bd 3052 84bb 29d1 3bbd fa51 53bd
00000140: 9d30 c73c a0f1 c23c 3577 60bb 0ea8 05bd
00000150: 4b40 3b3d 5d39 36bc 0362 18bd 7345 803d
00000160: 2dec 43bd f911 0fbd d5c4 143d f76e 483d
00000170: 7c0b 05bd 6d55 3cbd efda 423d 2a1e 98bc
00000180: 9031 fdbb 5681 f53b 0803 d03c 62af 133d
00000190: bd41 b0bc dae7 babc dd99 36bd c01b 623d
000001a0: c293 223d 8e8c a13c d2f5 38bd b939 163d
000001b0: b3b4 2dbd 4d08 2abc e198 cfbc 34bc 143d
000001c0: ea8a 883c dd9e 9cbc 8156 533d 0a54 0dbd
000001d0: 63d7 2dbd 14c3 4a3d a934 2e3c 8fb8 ad3c
000001e0: 8025 36ba 1513 72bd b374 113d 19c5 bdbc
000001f0: f513 5bbb 8432 4cbd 68b5 b83b 31c6 5cbc
00000200: b766 073d 166e d13c c710 003c 594f 643d
00000210: 87b3 6dbd 230c d4bc 310c 85ba 7a79 27bc
00000220: 8be0 653d a3a9 25bd f122 17bd b3b3 3e3b
00000230: 1376 3ebd fef7 22bd 7551 093d bb70 2e3d
00000240: 54b9 23bd 31d5 1b3d 513e 263d e728 423d
00000250: 3060 0a3d b499 9b3b 66fd 0c39 f7eb 43bb
00000260: c4bc 363d 2cd0 7ebc 6ca5 583d 3ccc febc
00000270: b31a 77bd aace a93b 9f79 19bd 5abf 9f3c
00000280: dea4 53bc a15f 42bd aadf 7c3d bec2 2c3d
00000290: fdb9 76bc 6cfe 2d3d a7bc 2cbd 894c d3bc
000002a0: 5d67 773d aa68 adbc 9bb0 e1bb 642f 5cb9
000002b0: f159 26bd c763 cbbc f53a b23c bd54 453d
000002c0: f078 5d3d 51e9 72bc 2967 08bd d210 083d
000002d0: 3873 113c d253 203d df83 463b fe0c 6f3d
000002e0: 5f0c 58bd bc74 43bd 49b0 78bc fb92 31bd
000002f0: 3dcd afbc 3c97 483d 6982 a93c 62c2 91bc
00000300: 1024 30bd 0f5b dabc 5e4a e8bc 861c 95bb
00000310: dc3b 8abc b0bc d93b 7645 d0bc 3f86 9cbc
00000320: 7a9c ff3c dc37 333d b8ac 73bd 6797 04bd
00000330: c2bc 63bd 8e1d 84bb d637 2c3c 3073 6dbc
00000340: c1d4 65ba 2b9b 8cbb cebe 933b 48d5 053d
00000350: ca19 fe3b efa8 2abd 1c0f 37bc 722d a2bc
00000360: 471e c83c aeb9 66bc b184 dcba 0a02 6a3d
00000370: b60a 073d 0be8 8f3d f002 63bd ee8d 853d
00000380: 6ba0 153c e75c 0e3d 274a 7f3d abfd 003d
00000390: 8dc6 05bd c682 803d 3f39 e23c 81dd 7e3d
000003a0: 871e 373d 04a6 c63c 3036 553a 9b18 66bc
000003b0: 771c 1dbd aa8b 5ebd 0d68 3bbd cecb 6f3d
000003c0: 1bb7 30bd 0883 c53c a1e7 79bd 7105 c73c
000003d0: 5f14 3fbc 2574 2b3d 0aab 653d 4147 32bd
000003e0: 461f 743c d3a3 27bd 1336 a33c 4a3b ae3d
000003f0: 87f5 c4b9 fb88 603d 66bc 343d 7cc1 8ebc

conv1.bias f4 [128]
-0.019615177 0.007152361 0.052917432 -0.029084964 -0.029455207 -0.008376413 0.018474203 0.012698796
0.058695056 -0.031316873 -0.04771878 -0.008691323 0.0065267975 0.04424574 -0.014334846 0.0007296082
0.030073911 0.03204535 -0.031166611 0.078770824 0.019405365 0.03362008 -0.035935633 -0.029076563
0.03423226 -0.0030886522 0.027782967 0.043440055 -0.0032470138 0.030868096 0.005164506 0.034486152
-0.024477731 -0.06429823 -0.03209362 -0.054897763 0.039674558 0.04330562 0.022811564 -0.020596286
0.015580658 0.006352978 0.05079958 0.023702558 -0.031764485 0.0020279468 0.022154024 -0.051445697
0.008430489 0.03425846 -0.03793883 0.040450267 -0.023409499 0.00794894 -0.0077949837 0.01097029
-0.026843466 0.03576539 0.0031488284 0.004767139 0.018563762 0.032968696 -0.011888248 -0.02606438
0.016532764 0.04075308 -0.0024179085 -0.027623907 -0.032119002 0.059309788 0.007957599 0.028990865
0.049254928 0.041391715 0.03920406 -0.048675604 -0.027719684 0.0028783705 0.02475889 0.027128693
0.058164395 0.07048025 -0.032628465 -0.0542278 -0.019422991 -0.016660254 -0.017886285 -0.022772433
0.0056732516 -0.057471465 -0.049129043 0.06258429 -0.0005582231 -0.050518535 0.043783367 -0.013585256
0.026239468 0.04085954 -0.048565686 -0.01204362 -0.02768245 0.020875925 0.0027092309 0.055366598
-0.035845358 0.057792347 0.09012983 0.046077367 0.037864618 0.032667488 0.07650185 -0.051363617
-0.020659842 0.03637954 -0.03575531 0.04848401 -0.01617905 -0.017165003 0.057998933 0.06285151
0.05487125 -0.0016051236 0.012729634 -0.0001706084 0.03233306 -0.048170317 0.05740261 0.043121204
00000000: 02b0 a0bc 5a5e ea3b f3bf 583d 9743 eebc
00000010: 0c4c f1bc 393d 09bc 3657 973c 9c0e 503c
00000020: 3a6a 703d 1f46 00bd c474 43bd 0d66 0ebc
00000030: bfde d53b 053b 353d b4dc 6abc 2d43 3f3a
00000040: 905d f63c fc41 033d 1f51 ffbc 9952 a13d
00000050: 00f8 9e3c 36b5 093d 3e31 13bd f931 eebc
00000060: 2037 0c3d fc6a 4abb 1b99 e33c 33ee 313d
00000070: dacb 54bb 17df fc3c 043b a93b 5a41 0d3d
00000080: 8685 c8bc caae 83bd 9a74 03bd 7adc 60bd
00000090: ca81 223d 3c61 313d 51df ba3c 8bb9 a8bc
000000a0: 0446 7f3c a42c d03b 3813 503d de2b c23c
000000b0: 7a1b 02bd 4de7 043b 5b7c b53c b9b8 52bd
000000c0: 0920 0a3c 9952 0c3d bf65 1bbd 2eaf 253d
000000d0: 47c5 bfbc 453c 023c 106d ffbb bbbc 333c
000000e0: d4e6 dbbc bb7e 123d 935c 4e3b a935 9c3b
000000f0: 0813 983c 2f0a 073d edc6 42bc f784 d5bc
00000100: b86f 873c b4ec 263d c675 1ebb 884b e2bc
00000110: 378f 03bd d2ee 723d 9760 023c 407e ed3c
00000120: 89bf 493d 5c8a 293d 7094 203d 1260 47bd
00000130: 6414 e3bc 0ba3 3c3b 28d3 ca3c fe3c de3c
00000140: ca3d 6e3d f357 903d 6da5 05bd f81d 5ebd
00000150: f71c 9fbc 167b 88bc 4286 92bc 418d babc
00000160: afe6 b93b 3367 6bbd 893b 49bd 312c 803d
00000170: b855 12ba 86ec 4ebd 3056 333d b294 5ebc
00000180: 27f4 d63c 555c 273d d0ec 46bd 9b52 45bc
00000190: 4ec6 e2bc fd03 ab3c 5a8d 313b 16c8 623d
000001a0: 95d2 12bd abb7 6c3d fd95 b83d 9fbb 3c3d
000001b0: ee17 1b3d 58ce 053d 00ad 9c3d a862 52bd
000001c0: d43e a9bc b602 153d 2974 12bd 2b97 463d
000001d0: ed89 84bc 9f9d 8cbc 4a90 6d3d 4bb8 803d
000001e0: adc0 603d 0363 d2ba f48f 503c 58e5 32b9
000001f0: ac6f 043d 3d4e 45bd 001f 6b3d dc9f 303d

conv2.weight f4 [64, 128, 1, 1]
-0.055859324 0.034417503 0.036614724 -0.03319307 0.023762394 -0.018753072 0.009574157 0.031557348
-0.007854201 -0.05624924 0.0318906 -0.026437713 0.005928049 0.081496336 0.032433026 0.05211071
0.035714835 -0.05820008 -0.08083549 0.001087026 0.05074998 0.003002729 0.050665367 -0.016339857
-0.015277534 -0.085879 0.022054465 -0.027084365 0.013696009 -0.038370963 0.0100291865 0.029260892
0.053194907 -0.04722572 0.02512727 0.013291885 -0.06520558 -0.085181765 -0.060573794 -0.014988623
-0.048254393 -0.001869317 0.04008287 -0.05122889 0.012593594 0.08347259 -0.071948126 -0.026014268
-0.065175235 -0.03758325 0.044980034 0.048183 0.0536394 0.053275112 0.07273881 -0.02233503
-0.06309194 0.091903776 -0.033489794 -0.03697004 0.027806122 0.07504574 -0.08835361 0.048272293
0.007044664 0.005513914 -0.07885526 0.050841425 0.0104546 -0.033696428 0.06894547 0.00025578158
0.034653153 0.024522165 -0.041520104 0.049990106 0.063203946 0.043384194 0.06427215 -0.093201086
0.08421474 0.06633919 0.019478 -0.03029282 0.032167852 -0.07755234 0.0061406023 -0.030096294
-0.00036392716 0.061794095 0.07626393 0.04684061 -0.09731958 -0.0063778753 0.04492578 -0.03591041
0.06374432 -0.007416166 -0.079417355 0.09943206 0.10297349 -0.11158839 -0.051089212 -0.034833614
0.03861767 -0.001277525 -0.0038797988 0.011835858 0.043032534 -0.011501553 -0.057030715 0.04249425
0.009615138 -0.027446967 -0.025136394 0.07359626 0.0012790362 -0.020337973 0.014440414 0.0034835278
0.04590092 -0.061829485 0.0030199222 -0.07672383 -0.0052251676 0.058373112 0.0909689 -0.084030546
-0.06768496 0.022317695 -0.08623368 0.041675713 0.055846147 -0.036952376 0.008806307 0.07384581
0.014047143 -0.050584264 -0.049928334 -0.07421895 0.011335597 0.08270072 0.05338729 -0.024288353
0.03309454 0.10142835 -0.018969174 0.058031913 -0.056215066 0.048676558 0.09740814 -0.035370596
-0.064994454 -0.07875889 0.0018720108 0.029617697 -0.07602756 0.0677411 -0.025489146 0.062469736
-0.053073302 0.0124784075 -0.054881472 -0.001680159 0.03427133 0.015294872 0.10642052 0.03453651
-0.048727043 0.010152732 0.060869716 0.034641273 0.06398517 -0.066831835 -0.054573637 0.089356355
0.052865278 -0.044620868 -0.03872763 0.010420133 0.06032121 0.029414065 0.061892573 -0.0003332451
-0.036339745 -0.054519877 -0.048098046 -0.08287379 0.059252836 0.0081232805 -0.051461495 -0.047140483
0.019211574 0.08532729 0.08505762 0.005020982 -0.041099723 0.096334465 0.09445619 -0.017926296
-0.06383235 -0.066250786 0.04045379 0.08816129 -0.06647343 0.10286254 -0.067837976 -0.06109433
-0.0373835 0.059697304 0.09556903 -0.023898756 -0.14245136 -0.024205517 0.036146734 0.01966614
0.077282876 0.01557025 -0.10435111 0.012616722 -0.10939966 0.024827458 -0.0040438985 0.021623781
-0.033424433 -0.049643744 -0.00097111554 0.07733051 0.0713988 0.0028558758 -0.08887307 -0.058244873
0.050239388 0.06876378 0.095525876 0.086750425 -0.025506124 -0.000472493 0.032867722 0.026328705
-0.096919574 0.018901017 -0.050853115 0.023042558 -0.053689223 -0.045801576 -0.05460532 -0.018372715
0.06475032 0.03586427 -0.04280441 0.086912915 0.0070696115 -0.07844153 0.03417392 0.036158465
00000000: bfcc 64bd 5ef9 0c3d 52f9 153d 75f5 07bd
00000010: 5aa9 c23c 0ba0 99bc eddc 1c3c 4742 013d
00000020: e8ae 00bc 9a65 66bd b89f 023d e793 d8bc
00000030: 1440 c23b 8de7 a63d 7ed8 043d 0a72 553d
00000040: b849 123d 3563 6ebd 148d a5bd 8a7a 8e3a
00000050: 36df 4f3d 6fc9 443b 7d86 4f3d 2adb 85bc
00000060: 9f4e 7abc 54e1 afbd 91ab b43c 08e0 ddbc
00000070: 3a65 603c df2a 1dbd 7551 243c 8ab4 ef3c
00000080: e7e2 593d c26f 41bd b4d7 cd3c 35c6 593c
00000090: 818a 85bd c773 aebd 3a1c 78bd d792 75bc
000000a0: 66a6 45bd df03 f5ba ef2d 243d 62d5 51bd
000000b0: 5d55 4e3c adf3 aa3d 8a59 93bd e01b d5bc
000000c0: 987a 85bd e5f0 19bd fc3c 383d 8a5b 453d
000000d0: fdb4 5b3d 0137 5a3d 16f8 943d f4f7 b6bc
000000e0: 5936 81bd 0c38 bc3d 982c 09bd e66d 17bd
000000f0: aac9 e33c 95b1 993d bdf2 b4bd 2bb9 453d
00000100: edd6 e63b 10ae b43b de7e a1bd 193f 503d
00000110: c549 2b3c 4405 0abd 4833 8d3d 6c1a 8639
00000120: 77f0 0d3d b5e2 c83c fc10 2abd 6dc2 4c3d
00000130: 1271 813d a0b3 313d 1ea1 833d 36e0 bebd
00000140: c778 ac3d d7dc 873d 5490 9f3c a628 f8bc
00000150: 70c2 033d c3d3 9ebd 1b37 c93b 818c f6bc
00000160: 7acd beb9 ce1b 7d3d 4330 9c3d f1db 3f3d
00000170: 7d4f c7bd 7ffd d0bb 1804 383d cb16 13bd
00000180: 628c 823d 4f03 f3bb 91a5 a2bd 09a3 cb3d
00000190: c4e3 d23d 7488 e4bd ec42 51bd b1ad 0ebd
000001a0: 902d 1e3d a072 a7ba 3944 7ebb 30eb 413c
000001b0: e242 303d 0271 3cbc 0a99 69bd 730e 2e3d
000001c0: d088 1d3c 76d8 e0bc d7ea cdbc a3b9 963d
000001d0: 55a5 a73a d29b a6bc 7c97 6c3c e64b 643b
000001e0: 9a02 3c3d ea40 7dbd e3e9 453b 6221 9dbd
000001f0: e237 abbb a518 6f3d e74d ba3d 3518 acbd
00000200: 6a9e 8abd 99d3 b63c 499b b0bd 27b4 2a3d
00000210: eebe 643d 605b 17bd 5448 103c 793c 973d
00000220: fd25 663c 7231 4fbd a781 4cbd 1b00 98bd
00000230: f1b8 393c ff5e a93d a2ac 5a3d 5ef8 c6bc
00000240: 248e 073d abb9 cf3d 3e65 9bbc dfb2 6d3d
00000250: c541 66bd 1261 473d eb7d c73d c2e0 10bd
00000260: d01b 85bd 574c a1bd 425e f53a d0a0 f23c
00000270: 56b4 9bbd d9bb 8a3d 9dce d0bc 44e0 7f3d
00000280: 6463 59bd 3c72 4c3c 65cb 60bd c838 dcba
00000290: 1860 0c3d 5897 7a3c 00f3 d93d 2876 0d3d
000002a0: 0296 47bd a557 263c 8652 793d 02e4 0d3d
000002b0: a80a 833d 21df 88bd 9b88 5fbd 7700 b73d
000002c0: 4389 583d 5fc4 36bd dda0 1ebd 35b9 2a3c
000002d0: 6013 773d c4f5 f03c 1183 7d3d 66b7 aeb9
000002e0: fcd8 14bd 3c50 5fbd 7502 45bd bcb9 a9bd
000002f0: 1ab3 723d 8217 053c 4ac9 52bd 6116 41bd
00000300: 9761 9d3c 13c0 ae3d b132 ae3d 0d87 a43b
00000310: 2f58 28bd 014b c53d 3f72 c13d 2bda 92bc
00000320: 89ba 82bd 7eae 87bd e0b2 253d e88d b43d
00000330: 3923 88bd 98a9 d23d a3ee 8abd 0c3e 7abd
00000340: 711f 19bd 2985 743d b2b9 c33d 53c7 c3bc
00000350: c5de 11be a64a c6bc 990e 143d e31a a13c
00000360: 7c46 9e3d 5d1a 7f3c 09b6 d5bd 5eb6 4e3c
00000370: ee0c e0bd f462 cb3c ae82 84bb 5b24 b13c
00000380: 0fe8 08bd 3d57 4bbd 7692 7eba 755f 9e3d
00000390: 8939 923d a529 3b3b 1603 b6bd 2d92 6ebd
000003a0: d1c7 4d3d 06d4 8c3d 12a3 c33d 35aa b13d
000003b0: 38f2 d0bc f0b8 f7b9 4ea0 063d 4caf d73c
000003c0: c57d c6bd 4ed6 9a3c 5b4b 50bd bfc3 bc3c
000003d0: 3be9 5bbd 6f9a 3bbd d4a9 5fbd 6082 96bc
000003e0: d19b 843d 6ae6 123d ad53 2fbd 66ff b13d
000003f0: 33a8 e73b f4a5 a0bd f4f9 0b3d e61a 143d

conv2.bias f4 [64]
-0.0013710812 0.0144673325 -0.025826259 -0.015174455 -0.029281626 0.09010761 -0.06451205 -0.051080905
-0.03193229 0.044548098 0.015695836 -0.08625529 0.08092226 0.034094833 0.011547158 0.07377712
-0.045055863 0.040668603 -0.048525274 0.0012095777 0.07086348 -7.643821e-05 -0.041354563 -0.02003593
-0.032523416 0.07704192 0.03777445 0.042532265 0.013703615 -0.03914014 0.07517671 -0.01999218
-0.037341896 -0.04798097 0.045538586 -0.039787587 0.036625948 0.06841704 0.029391332 -0.06913524
0.04757486 -0.055460945 0.012661034 -0.00843891 -0.0027317842 -0.04340514 -0.058601554 -0.06824854
0.0073845107 -0.008934714 -0.02699372 -0.050844986 0.05127326 0.009674979 0.053340808 0.07580764
-0.07740757 0.04248031 -0.038612556 0.03938538 -0.035885833 -0.07768179 0.04418904 -0.036387436
00000000: dab5 b3ba 6408 6d3c 9791 d3bc 479e 78bc
00000010: 05e0 efbc 578a b83d e51e 84bd 363a 51bd
00000020: 6fcb 02bd 1178 363d 8e94 803c 9da6 b0bd
00000030: 92ba a53d 06a7 0b3d 4a30 3d3c 7518 973d
00000040: 7f8c 38bd 1f94 263d 70c2 46bd b18a 9e3a
00000050: df20 913d 744d a0b8 6763 29bd 6422 a4bc
00000060: 4637 05bd 27c8 9d3d 62b9 1a3d 5036 2e3d
00000070: 2185 603c 6951 20bd 3ff6 993d a4c6 a3bc
00000080: d1f3 18bd b287 44bd ab86 3a3d 4ff8 22bd
00000090: 1705 163d 3c1e 8c3d 17c6 f03c c796 8dbd
000000a0: dbdd 423d 042b 63bd 3a70 4f3c 5b43 0abc
000000b0: bc07 33bb 97c9 31bd 2f08 70bd e4c5 8bbd
000000c0: c4f9 f13b e862 12bc ef21 ddbc d542 50bd
000000d0: e903 523d ce83 1e3c e47b 5a3d 0941 9b3d
000000e0: dc87 9ebd d5ff 2d3d 3328 1ebd 9052 213d
000000f0: 06fd 12bd a117 9fbd 91ff 343d fe0a 15bd

conv3.weight f4 [3, 64, 5, 5]
-0.008277146 -0.0076501886 0.002522084 0.006381289 0.02390806 0.0093875835 -0.024296118 0.019285098
-0.018933276 0.017390164 0.019648267 -0.020790715 -0.0036588379 0.02664759 -0.02061508 0.009728244
-0.00029718195 -0.015307398 -0.019996388 0.0057262247 0.017258348 -0.008430502 -0.019894773 0.01767269
0.00022803777 -0.01728416 0.013959302 0.024667155 -0.011489058 -0.0063288496 -0.032189477 -0.011529952
0.008252467 0.00087886694 -0.0063903704 0.00523661 -0.036542546 -0.018266998 0.020476611 0.005052254
-0.036665484 -0.0064703324 -0.012783698 -0.02297692 -0.027250301 -0.02277969 -0.00034794517 0.0026366827
0.008585431 -0.0072377045 0.0040174313 0.00026763903 0.03722615 0.010636994 -0.014974765 -0.0056438334
0.0053104726 0.037793018 0.04658399 -0.019730523 0.0077712256 0.007999123 0.042924397 0.018755496
0.021122962 0.018432388 0.004437275 0.03136941 0.02729201 -0.0063604396 -0.0031711587 0.005446364
0.014852178 0.008590835 -0.013877843 0.011439403 0.007318946 0.0023930154 -0.011458867 -0.003978451
0.013504385 0.004124003 0.015675608 0.0009596067 0.016051926 -0.0022931856 -0.012330371 0.010380395
0.012088932 -0.010206746 0.016949447 0.014784489 0.006437966 0.0039032898 0.018812645 0.017590182
-0.010419589 -0.007074435 -0.004626245 -0.014799347 0.0021384794 -0.016498797 -0.015539297 0.0031030113
-0.003977068 0.011139657 -0.019311145 -0.016954504 -0.0027949228 -0.014759044 -0.007984132 0.019922305
0.020224877 0.0003127632 0.0154168615 -0.0136135155 -0.001437547 -0.004864497 0.0070022866 -0.0030884591
-0.011730683 -0.0037161577 0.010320114 -0.005687348 -0.009551205 -0.0031634248 0.022836456 -0.021861866
-0.0085388655 0.023809541 0.025685588 -0.0045602797 0.008309705 0.013039613 -0.0051223235 -0.0011933146
0.023880934 0.022893043 0.011134942 0.025906388 0.024396637 -0.0071792393 -0.013399821 0.017404541
-0.012825547 0.014163687 -0.01584666 0.026566304 -0.0072882227 0.0083576 0.004076066 -0.025015477
0.010981835 -0.007557786 -0.029568437 -0.042774443 -0.039571147 -0.010602831 -0.05148605 0.0005993017
-0.024187641 -0.036150668 0.006311962 -0.034225978 -0.03651035 -0.007938778 -0.013329075 0.0021914837
0.011295409 0.00027707365 -0.0017771814 0.0074443286 0.010260319 0.0011520532 0.030474612 -0.013098357
-0.0033275778 0.021577416 -0.0017950385 0.009688699 -0.012370695 -0.0009472624 0.026251288 -0.009823647
-0.010618128 0.020846613 0.023241112 -0.019450564 -0.0039024174 0.012440161 0.007492039 0.0062629087
-0.020168705 -0.019657023 0.016123094 -0.0023961982 0.015156482 -0.011922643 0.01913973 0.017278455
0.011878031 0.005371426 -0.0043290867 0.0035801262 0.0025981097 0.020966155 -0.006115534 0.0012631192
-0.0053593935 -0.01820276 0.017127411 0.021273088 -0.013198557 0.010281927 -0.023175644 -0.014166293
0.019609638 -0.019289745 0.021879537 -0.007029388 -0.009163621 0.009026668 0.00982273 0.012984503
0.0045037167 -0.0097384285 -0.008565166 0.00963576 0.017630085 -0.017925013 -0.022202924 -0.007955026
0.021301633 -0.020829495 0.021903109 0.017372636 -0.0105635775 0.028035728 -0.014823124 0.024037976
0.0031538466 0.024548342 0.014812027 0.019316351 -0.014823872 0.016680783 -0.004387306 -0.017445905
-0.010137093 0.024527978 0.010110479 0.007215188 0.005270562 0.0055585653 -0.024769787 -0.02326898
00000000: de9c 07bc 6fae fabb 8c49 253b 221a d13b
00000010: d6da c33c 61ce 193c a708 c7bc c8fb 9d3c
00000020: f519 9bbc d175 8e3c 67f5 a03c 4a51 aabc
00000030: 1dc9 6fbb 0c4c da3c f5e0 a8bc 3663 1f3c
00000040: 16cf 9bb9 e1cb 7abc 77cf a3bc 0ea3 bb3b
00000050: 6161 8d3c 1720 0abc 5dfa a2bc 51c6 903c
00000060: 6c1d 6f39 8397 8dbc 8eb5 643c c612 ca3c
00000070: 9a3c 3cbc 3d62 cfbb 1dd9 03bd 20e8 3cbc
00000080: 5b35 073c c363 663a 5066 d1bb de97 ab3b
00000090: a3ad 15bd aca4 95bc 91be a73c 618d a53b
000000a0: 8c2e 16bd 1505 d4bb b772 51bc 183a bcbc
000000b0: 063c dfbc 799c babc 696c b6b9 32cc 2c3b
000000c0: e8a9 0c3c 442a edbb a8a4 833b e751 8c39
000000d0: 737a 183d c946 2e3c b758 75bc e8ef b8bb
000000e0: 7903 ae3b dacc 1a3d dbce 3e3d e8a1 a1bc
000000f0: c4a5 fe3b c10e 033c 7ed1 2f3d 20a5 993c
00000100: 100a ad3c 85ff 963c 9066 913b 367d 003d
00000110: 7e93 df3c 3c6b d0bb 37d3 4fbb 6a77 b23b
00000120: 8d56 733c 93c0 0c3c e45f 63bc 556c 3b3c
00000130: c5d3 ef3b 23d4 1c3b f9bd 3bbc aa5d 82bb
00000140: 7f41 5d3c a522 873b 226a 803c 1e8e 7b3a
00000150: 547f 833c 4549 16bb 5305 4abc 8812 2a3c
00000160: a810 463c 323a 27bc 91d9 8a3c a43a 723c
00000170: 93f5 d23b 56ce 7f3b fa1c 9a3c 4919 903c
00000180: ecb6 2abc a9d0 e7bb c197 97bb f678 72bc
00000190: bb25 0c3b 7c28 87bc 8998 7ebc e45b 4b3b
000001a0: 1052 82bb 1c83 363c 6832 9ebc 2ce4 8abc
000001b0: 062b 37bb ebcf 71bc e0cf 02bc 1a34 a33c
000001c0: a4ae a53c 5efa a339 0197 7c3c 390b 5fbc
000001d0: 136c bcba 5c66 9fbb 7073 e53b bf67 4abb
000001e0: 0d32 40bc c88a 73bb b215 293c ef5c babb
000001f0: a87c 1cbc 7651 4fbb 8513 bb3c a817 b3bc
00000200: 99e6 0bbc 3a0c c33c 956a d23c 666e 95bb
00000210: 6e25 083c 1aa4 553c 2ad9 a7bb fe68 9cba
00000220: f3a1 c33c 318a bb3c 556f 363c a239 d43c
00000230: 75db c73c d33f ebbb ec8a 5bbc f893 8e3c
00000240: 3e22 52bc cf0e 683c dbd0 81bc 94a1 d93c
00000250: 0bd2 eebb 51ee 083c 8590 853b 42ed ccbc
00000260: 28ed 333c 4ea7 f7bb 8239 f2bc 4134 2fbd
00000270: 5b15 22bd 7fb7 2dbc 09e3 52bd 751a 1d3a
00000280: 2925 c6bc b912 14bd 93d4 ce3b 8a30 0cbd
00000290: e08b 15bd a611 02bc 3162 5abc ff9e 0f3b
000002a0: 6110 393c 3244 9139 50f0 e8ba 8eef f33b
000002b0: e61a 283c 7e00 973a e5a5 f93c 7e9a 56bc
000002c0: 7e13 5abb 1fc3 b03c 7f47 ebba 59bd 1e3c
000002d0: 75ae 4abc b451 78ba f10c d73c 5df3 20bc
000002e0: a8f7 2dbc 84c6 aa3c 2564 be3c ca56 9fbc
000002f0: b3bf 7fbb d1d1 4b3c c77f f53b 1639 cd3b
00000300: d738 a5bc c407 a1bc 9414 843c 8909 1dbb
00000310: e552 783c 3057 43bc ecca 9c3c 8c8b 8d3c
00000320: 139c 423c ca02 b03b 03db 8dbb 8da0 6a3b
00000330: 0c45 2a3b 37c1 ab3c d164 c8bb 3f8f a53a
00000340: da9d afbb f41d 95bc c94e 8c3c e644 ae3c
00000350: c33e 58bc 8775 283c d9da bdbc bd19 68bc
00000360: 64a4 a03c 8705 9ebc b73c b33c c856 e6bb
00000370: 0323 16bc 97e4 133c 84ef 203c f4bc 543c
00000380: ea93 933b ee8d 1fbc e954 0cbc 4fdf 1d3c
00000390: f86c 903c 7ad7 92bc e8e2 b5bc cc55 02bc
000003a0: c380 ae3c 9ea2 aabc 266e b33c 0f51 8e3c
000003b0: db12 2dbc 2fab e53c b0dc 72bc 4aeb c43c
000003c0: c4b0 4e3b 9b19 c93c 25ae 723c 533d 9e3c
000003d0: d3df 72bc 23a6 883c 64c3 8fbb b7ea 8ebc
000003e0: 0d16 26bc e6ee c83c 6ca6 253c 626d ec3b
000003f0: aeb4 ac3b a024 b63b 02ea cabc 979e bebc

conv3.bias f4 [3]
-0.00016088248 0.0048332796 0.01339013
00000000: 90b2 28b9 7d60 9e3b 4762 5b3c

exp_avg f4 [128, 3, 9, 9]
-1.3159708e-05 -9.721892e-06 -1.1273858e-05 -1.1746003e-05 -1.135387e-05 -7.584702e-06 -5.8801747e-06 -7.062633e-06
-1.2845375e-05 -2.5340014e-06 -4.1645535e-06 -9.842713e-06 -1.2710329e-05 -1.3693379e-05 -1.0249538e-05 -5.8638984e-06
-1.7081946e-06 -2.0511497e-06 -3.4697146e-06 -9.021256e-06 -1.5332367e-05 -1.6945512e-05 -1.7958886e-05 -1.6990509e-05
-1.3697339e-05 -7.691158e-06 -4.1923518e-06 -2.5031652e-06 -7.808951e-06 -9.317155e-06 -5.3713134e-06 -5.0737594e-06
-8.347827e-06 -1.05269255e-05 -7.852479e-06 -4.516164e-06 -1.0563422e-06 -4.2785605e-06 -5.4774574e-07 8.482858e-06
9.902212e-06 2.4200203e-06 -4.9146606e-06 -5.492693e-06 -3.5258363e-06 1.3131294e-06 -2.1955827e-06 5.1910916e-07
8.440413e-06 9.675755e-06 4.1701865e-06 -4.9350945e-07 1.802857e-06 4.5983593e-06 3.877619e-06 -6.800805e-07
-3.1014968e-06 -4.207745e-07 1.4911728e-07 -3.157711e-08 1.3434945e-06 7.920927e-06 1.12870885e-05 5.380199e-06
3.1907766e-06 -1.6886087e-06 -2.9926484e-06 -2.681537e-06 1.613543e-06 5.933469e-06 1.2321583e-05 1.3203035e-05
-4.0042346e-06 -1.2242491e-06 -3.3620322e-06 -4.069717e-06 -3.3863319e-06 2.0644252e-06 4.8778866e-06 7.210337e-06
3.922759e-06 -5.59777e-06 -2.2728957e-06 -4.547834e-06 -7.0982674e-06 -8.569827e-06 -4.9500472e-06 -1.8711999e-06
-3.4553273e-06 -9.316674e-06 2.0995324e-06 4.7367607e-07 -6.0303432e-06 -1.1451135e-05 -1.4862307e-05 -1.1850666e-05
-6.034231e-06 -2.2019426e-06 -2.555378e-06 4.4358376e-07 -5.226929e-06 -1.2458172e-05 -1.6727674e-05 -2.0180656e-05
-1.9597765e-05 -1.4839251e-05 -9.350142e-06 -6.084558e-06 -1.4440965e-07 -6.120805e-06 -8.7844355e-06 -7.243599e-06
-8.742799e-06 -1.182255e-05 -1.2350197e-05 -1.0420731e-05 -7.665946e-06 -2.7195912e-07 -4.9226037e-06 -2.7366802e-06
4.1602398e-06 4.6000464e-06 -1.9011321e-06 -7.2525518e-06 -8.713958e-06 -7.653006e-06 1.1235506e-06 -4.405395e-06
-3.6665085e-06 2.1176322e-06 2.7214523e-06 -1.3654914e-06 -3.822417e-06 -2.365558e-06 -6.038562e-07 3.7802595e-06
-3.0406395e-06 -7.731818e-06 -7.455734e-06 -7.774519e-06 -6.803675e-06 -3.4010898e-06 2.323055e-06 4.6861114e-06
6.4879587e-06 2.0249713e-06 -5.2528417e-06 -9.262574e-06 -1.0351909e-05 -5.6415556e-06 1.2704889e-07 5.526563e-06
5.558393e-06 -1.7383054e-06 -1.1672022e-06 -5.7136394e-06 -9.326318e-06 -1.0477698e-05 -5.370766e-06 -1.7782113e-06
-6.480593e-07 -4.6234018e-06 -3.5847852e-06 4.649937e-07 -1.967399e-06 -4.9607106e-06 -6.8826953e-06 -3.824818e-06
1.7480215e-07 -2.3758655e-06 -8.774402e-06 2.6376215e-06 2.5474192e-06 -3.3311483e-06 -8.588045e-06 -1.1996212e-05
-9.218374e-06 -2.5203076e-06 -3.1386676e-07 -2.0376312e-06 -9.0102026e-07 -4.6668006e-06 -1.0902165e-05 -1.4569514e-05
-1.7389824e-05 -1.6351969e-05 -1.0380912e-05 -6.8309555e-06 -5.525617e-06 -4.6269874e-06 -9.164437e-06 -1.1238584e-05
-9.006012e-06 -9.114072e-06 -1.0705114e-05 -9.224518e-06 -8.817689e-06 -7.9454285e-06 -7.722756e-06 -1.1803921e-05
-9.804329e-06 -2.4133037e-06 -5.3857235e-08 -4.215583e-06 -6.7711844e-06 -9.0920585e-06 -9.398685e-06 -7.5283383e-06
-1.2944442e-05 -1.2757431e-05 -6.631618e-06 -4.152735e-06 -5.942711e-06 -5.5556384e-06 -4.638612e-06 -3.7413222e-06
-3.8210196e-06 -1.0491867e-05 -1.5581143e-05 -1.50231745e-05 -1.4007426e-05 -1.161063e-05 -6.000355e-06 -9.448356e-07
8.212238e-07 2.7406238e-06 -1.527095e-06 -9.038722e-06 -1.2857279e-05 -1.3280526e-05 -8.22462e-06 -1.042253e-06
3.4872587e-06 3.0940732e-06 -1.4850556e-06 -9.243784e-07 -5.918028e-06 -9.667225e-06 -1.0719966e-05 -6.044406e-06
-1.5569753e-06 -1.3227682e-06 -5.5205023e-06 -6.497417e-06 -1.203297e-05 -1.0510918e-05 -6.9899615e-06 -3.5958535e-06
-3.623412e-06 -5.300964e-06 -9.125052e-06 -9.46191e-06 -2.153252e-06 -5.6908807e-06 -2.2369609e-06 -1.2883801e-06
00000000: 84c8 5cb7 351b 23b7 da24 3db7 b310 45b7
00000010: 807c 3eb7 1880 feb6 514e c5b6 8efb ecb6
00000020: 7782 57b7 d00d 2ab6 3ebd 8bb6 2122 25b7
00000030: 733e 55b7 9dbc 65b7 6ef5 2bb7 81c2 c4b6
00000040: 1f45 e5b5 7ca6 09b6 3ed9 68b6 005a 17b7
00000050: 029e 80b7 3626 8eb7 6aa6 96b7 d786 8eb7
00000060: a0cd 65b7 4609 01b7 07ac 8cb6 0dfc 27b6
00000070: 3003 03b7 e050 1cb7 3b3b b4b6 433f aab6
00000080: a50d 0cb7 cd9c 30b7 24be 03b7 8e89 97b6
00000090: a4c7 8db5 8e90 8fb6 cd08 13b5 9951 0e37
000000a0: ad21 2637 a267 2236 9de8 a4b6 e04d b8b6
000000b0: 689d 6cb6 c83e b035 d357 13b6 e958 0b35
000000c0: 4c9b 0d37 0d55 2237 a1ed 8b36 b679 04b5
000000d0: b2f9 f135 9b4b 9a36 7e1c 8236 c78e 36b5
000000e0: 4f23 50b6 cfe6 e1b4 0c1d 2034 669f 07b3
000000f0: 1f52 b435 1fe4 0437 ad5d 3d37 8f87 b436
00000100: 2021 5636 27a4 e2b5 4fd5 48b6 74f4 33b6
00000110: ea90 d835 1c18 c736 ccb8 4e37 9b82 5d37
00000120: 1d5c 86b6 e150 a4b5 469f 61b6 9a8e 88b6
00000130: bd40 63b6 8e8a 0a36 baac a336 53f0 f136
00000140: 3ea0 8336 7ad4 bbb6 0d88 18b6 9999 98b6
00000150: a72d eeb6 20c7 0fb7 9518 a6b6 f025 fbb5
00000160: 12e2 67b6 cf4e 1cb7 b1e5 0c36 8b4d fe34
00000170: 4158 cab6 401e 40b7 1f59 79b7 39d2 46b7
00000180: a679 cab6 16c5 13b6 0f7d 2bb6 b025 ee34
00000190: fa62 afb6 7103 51b7 6852 8cb7 a149 a9b7
000001a0: e165 a4b7 19f6 78b7 8ede 1cb7 f529 ccb6
000001b0: 060f 1bb4 5161 cdb6 dd60 13b7 0b0e f3b6
000001c0: 09ae 12b7 7759 46b7 b133 4fb7 b3d4 2eb7
000001d0: fd9c 00b7 c701 92b4 d82c a5b6 cfa7 37b6
000001e0: 3098 8b36 195a 9a36 672a ffb5 f25a f3b6
000001f0: 2a32 12b7 6965 00b7 e8cc 9635 0ed2 93b6
00000200: 230e 76b6 a51c 0e36 32a2 3636 ed45 b7b5
00000210: 5042 80b6 fabf 1eb6 af18 22b5 5db0 7d36
00000220: ca0d 4cb6 e8b7 01b7 442c fab6 4e6f 02b7
00000230: 204b e4b6 473e 64b6 c8e5 1b36 643d 9d36
00000240: 24b3 d936 bee4 0736 9141 b0b6 7466 1bb7
00000250: 1cad 2db7 984c bdb6 ef6a 0834 d170 b936
00000260: 3b82 ba36 b84f e9b5 c3a8 9cb5 cab7 bfb6
00000270: 3b78 1cb7 5fc9 2fb7 8736 b4b6 e0aa eeb5
00000280: 4cf6 2db5 b822 9bb6 2492 70b6 3fa4 f934
00000290: a807 04b6 2e74 a6b6 e7f1 e6b6 f056 80b6
000002a0: 40b1 3b34 0f71 1fb6 c535 13b7 fe01 3136
000002b0: 54f4 2a36 b18c 5fb6 5f15 10b7 5743 49b7
000002c0: 9da8 1ab7 8e22 29b6 8581 a8b4 3dbe 08b6
000002d0: a4dd 71b5 8397 9cb6 71e8 36b7 966f 74b7
000002e0: 5de0 91b7 962b 89b7 ad29 2eb7 7635 e5b6
000002f0: b068 b9b6 8541 9bb6 f5c0 19b7 5a8d 3cb7
00000300: 8718 17b7 a4e8 18b7 1d9a 33b7 01c3 1ab7
00000310: b0ef 13b7 5b4d 05b7 fc90 01b7 7409 46b7
00000320: 467d 24b7 3ef4 21b6 a850 67b3 9573 8db6
00000330: 0834 e3b6 188a 18b7 0baf 1db7 ef9b fcb6
00000340: f42b 59b7 c008 56b7 2a85 deb6 b957 8bb6
00000350: 8067 c7b6 926a bab6 60a5 9bb6 6d13 7bb6
00000360: 4f36 80b6 3a06 30b7 40b4 82b7 0b0c 7cb7
00000370: 7001 6bb7 47cb 42b7 a856 c9b6 9ca0 7db5
00000380: 1272 5c35 8feb 3736 96f6 ccb5 04a5 17b7
00000390: 98b5 57b7 6dcf 5eb7 79fc 09b7 8ae3 8bb5
000003a0: a606 6a36 c6a3 4f36 1f52 c7b5 cd22 78b5
000003b0: 7993 c6b6 6a30 22b7 e7d9 33b7 0dd1 cab6
000003c0: 44f9 d0b5 f889 b1b5 c13c b9b6 6304 dab6
000003d0: 36e1 49b7 0d58 30b7 508b eab6 4b50 71b6
000003e0: bf29 73b6 efde b1b6 cd17 19b7 98be 1eb7
000003f0: 9680 10b6 4bf4 beb6 b21e 16b6 67ec acb5

exp_avg_sq f4 [128, 3, 9, 9]
3.48932e-08 3.5824296e-08 3.5931226e-08 3.6071356e-08 3.6025163e-08 3.541738e-08 3.4542136e-08 3.3462733e-08
3.2288728e-08 3.608269e-08 3.7080632e-08 3.7222957e-08 3.7364682e-08 3.7287574e-08 3.6614363e-08 3.5665444e-08
3.453808e-08 3.331013e-08 3.625691e-08 3.7309466e-08 3.7424726e-08 3.7475207e-08 3.736079e-08 3.6689826e-08
3.5723737e-08 3.455861e-08 3.33191e-08 3.6277694e-08 3.7285517e-08 3.728196e-08 3.7334274e-08 3.7259703e-08
3.6581852e-08 3.563643e-08 3.4500935e-08 3.327542e-08 3.6198593e-08 3.7153132e-08 3.7203197e-08 3.7504023e-08
3.748736e-08 3.6633963e-08 3.560372e-08 3.4469995e-08 3.3250167e-08 3.5703472e-08 3.664491e-08 3.6737696e-08
3.704463e-08 3.701728e-08 3.6235523e-08 3.526037e-08 3.414702e-08 3.294065e-08 3.516429e-08 3.611163e-08
3.6167236e-08 3.6285837e-08 3.6245833e-08 3.5665973e-08 3.4819767e-08 3.3775105e-08 3.260752e-08 3.414242e-08
3.5046554e-08 3.5124927e-08 3.522086e-08 3.5174885e-08 3.4622882e-08 3.3834592e-08 3.2885673e-08 3.178965e-08
3.2914652e-08 3.3777678e-08 3.384995e-08 3.3941895e-08 3.3887233e-08 3.333987e-08 3.2593e-08 3.1678095e-08
3.0620747e-08 3.3597296e-08 3.442498e-08 3.449388e-08 3.4606096e-08 3.4575322e-08 3.3997985e-08 3.3148634e-08
3.209006e-08 3.0945383e-08 3.474842e-08 3.559664e-08 3.5679243e-08 3.580508e-08 3.5763925e-08 3.5120898e-08
3.4186378e-08 3.3092192e-08 3.19082e-08 3.488253e-08 3.5779127e-08 3.5860037e-08 3.5922564e-08 3.584837e-08
3.52011e-08 3.4235512e-08 3.3107998e-08 3.1912144e-08 3.4897432e-08 3.579368e-08 3.5800785e-08 3.5844728e-08
3.5760635e-08 3.509173e-08 3.415698e-08 3.3063152e-08 3.187827e-08 3.484403e-08 3.5723197e-08 3.578642e-08
3.6023337e-08 3.5960543e-08 3.5129958e-08 3.4136402e-08 3.3050096e-08 3.1868808e-08 3.438443e-08 3.525789e-08
3.534606e-08 3.556728e-08 3.5500463e-08 3.4753736e-08 3.3818157e-08 3.2737823e-08 3.154934e-08 3.3892594e-08
3.477001e-08 3.483356e-08 3.4911988e-08 3.486171e-08 3.4291624e-08 3.3444522e-08 3.2400326e-08 3.1228794e-08
3.2922287e-08 3.3742406e-08 3.3821408e-08 3.390494e-08 3.3865625e-08 3.3295876e-08 3.247361e-08 3.1488657e-08
3.0376412e-08 3.170101e-08 3.2490828e-08 3.2563428e-08 3.2649158e-08 3.26075e-08 3.2037807e-08 3.1254203e-08
3.0309433e-08 2.9260393e-08 3.0474816e-08 3.1206607e-08 3.126985e-08 3.137116e-08 3.135176e-08 3.0825895e-08
3.0069195e-08 2.9124825e-08 2.8124502e-08 3.1499514e-08 3.2256374e-08 3.2327446e-08 3.2437537e-08 3.240757e-08
3.1826165e-08 3.099141e-08 3.0013442e-08 2.8969586e-08 3.1627984e-08 3.2444845e-08 3.252615e-08 3.258105e-08
3.2514603e-08 3.1913395e-08 3.1022807e-08 3.0011698e-08 2.8960876e-08 3.166384e-08 3.2508176e-08 3.2521e-08
3.2532952e-08 3.245036e-08 3.1834794e-08 3.096536e-08 2.997303e-08 2.892992e-08 3.165627e-08 3.2490618e-08
3.250281e-08 3.2626065e-08 3.2570462e-08 3.18604e-08 3.09673e-08 2.9983983e-08 2.8940525e-08 3.1275196e-08
3.2113615e-08 3.2148517e-08 3.225361e-08 3.2194478e-08 3.1554354e-08 3.0706275e-08 2.9721692e-08 2.8660006e-08
3.0862623e-08 3.171904e-08 3.180123e-08 3.1842585e-08 3.178564e-08 3.1242035e-08 3.042688e-08 2.9458798e-08
2.8402534e-08 2.9935016e-08 3.071309e-08 3.0829355e-08 3.0921083e-08 3.0882468e-08 3.0336192e-08 2.956452e-08
2.8658096e-08 2.7655453e-08 2.8861885e-08 2.9576068e-08 2.965736e-08 2.9743024e-08 2.9708179e-08 2.9191654e-08
2.8489763e-08 2.7633808e-08 2.6693009e-08 4.7218163e-09 4.8839417e-09 4.557965e-09 4.6024193e-09 4.7248228e-09
4.554074e-09 4.876564e-09 5.1724505e-09 5.050811e-09 4.6152553e-09 4.65558e-09 4.4211514e-09 4.473967e-09
00000000: 7bdd 1533 3bdd 1933 cd52 1a33 e0ec 1a33
00000010: 16ba 1a33 d21d 1833 7b5b 1433 aab8 0f33
00000020: d5ad 0a33 56f9 1a33 9642 1f33 13df 1f33
00000030: e77a 2033 1f26 2033 eb41 1d33 922e 1933
00000040: 0557 1433 e010 0f33 e5b8 1b33 313e 2033
00000050: ecbc 2033 6df4 2033 9f76 2033 e494 1d33
00000060: aa6e 1933 986d 1433 bd1a 0f33 bfcf 1b33
00000070: dc23 2033 f31f 2033 7859 2033 7a07 2033
00000080: 2c1e 1d33 ab0e 1933 2e2e 1433 b6ea 0e33
00000090: c678 1b33 4d92 1f33 59c9 1f33 1c14 2133
000000a0: ca01 2133 7857 1d33 b4ea 1833 290c 1433
000000b0: f2ce 0e33 6258 1933 8163 1d33 86c9 1d33
000000c0: 001b 1f33 eefc 1e33 61a1 1b33 3071 1733
000000d0: 0ca9 1233 a17a 0d33 8c07 1733 2819 1b33
000000e0: 4c56 1b33 b3d8 1b33 b7ac 1b33 272f 1933
000000f0: bd8c 1533 1f10 1133 590c 0c33 fda3 1233
00000100: 1886 1633 44dc 1633 bf45 1733 3213 1733
00000110: 43b4 1433 8751 1133 2e3e 0d33 1789 0833
00000120: 0b5e 0d33 f312 1133 6a62 1133 82c7 1133
00000130: 688b 1133 9331 0f33 62fc 0b33 6f0e 0833
00000140: de83 0333 9e4c 1033 aada 1333 6c26 1433
00000150: cea1 1433 f87f 1433 2e05 1233 4f5f 0e33
00000160: 65d3 0933 cfe8 0433 4b3e 1533 ebe2 1833
00000170: be3d 1933 1ac8 1933 da9a 1933 d6d7 1633
00000180: 52d4 1233 4021 0e33 700b 0933 bfd1 1533
00000190: 91ab 1933 8704 1a33 4749 1a33 b3f7 1933
000001a0: 0530 1733 580a 1333 a132 0e33 c60f 0933
000001b0: 22e2 1533 91bb 1933 61c3 1933 b2f3 1933
000001c0: 3c97 1933 c4b7 1633 ffb3 1233 5201 0e33
000001d0: 87ea 0833 6ba7 1533 126e 1933 96b3 1933
000001e0: 14b8 1a33 0973 1a33 cce1 1633 5f9d 1233
000001f0: f7f2 0d33 20e0 0833 15ae 1333 766e 1733
00000200: 67cf 1733 a3c2 1833 2c79 1833 2344 1533
00000210: 753f 1133 9e9b 0c33 de80 0733 4d91 1133
00000220: 0856 1533 e79b 1533 23f2 1533 dbba 1533
00000230: 0a48 1333 a4a4 0f33 8928 0b33 6c20 0633
00000240: 7066 0d33 2bec 1033 0843 1133 e09e 1133
00000250: a673 1133 3401 0f33 1d79 0b33 253e 0733
00000260: 3877 0233 a127 0833 0b8c 0b33 dedb 0b33
00000270: 213a 0c33 530c 0c33 f199 0933 5c3c 0633
00000280: 932d 0233 4958 fb32 6ae3 0233 0708 0633
00000290: 904d 0633 f5bc 0633 a0a7 0633 6e65 0433
000002a0: 6e25 0133 2b2e fa32 6f96 f132 154a 0733
000002b0: 428a 0a33 67d8 0a33 7351 0b33 8030 0b33
000002c0: 3db1 0833 6a1b 0533 21e8 0033 cbd8 f832
000002d0: 56d7 0733 7c59 0b33 e1b2 0b33 3eef 0b33
000002e0: 2fa6 0b33 2611 0933 f03d 0533 36e6 0033
000002f0: a4c5 f832 c3fe 0733 1e9f 0b33 38ad 0b33
00000300: 5cba 0b33 8c5f 0b33 baba 0833 c6fe 0433
00000310: b2bb 0033 9181 f832 70f6 0733 d08b 0b33
00000320: 3899 0b33 bd20 0c33 9ae3 0b33 e1d6 0833
00000330: e800 0533 bdc7 0033 e398 f832 7153 0633
00000340: 4bed 0933 ab13 0a33 3887 0a33 3446 0a33
00000350: 6186 0733 e8e1 0333 b14e ff32 0530 f632
00000360: d08d 0433 743b 0833 d295 0833 4bc3 0833
00000370: ae84 0833 fb2e 0633 b5ae 0233 950c fd32
00000380: d5f9 f332 e691 0033 66e9 0333 3c69 0433
00000390: 17ce 0433 a2a3 0433 ff4a 0233 11f5 fd32
000003a0: d22b f632 fc8e ed32 f5eb f732 760e fe32
000003b0: 39c1 fe32 9a7d ff32 fa30 ff32 20c1 fa32
000003c0: a7b9 f432 635f ed32 8c4a e532 893d a231
000003d0: 9bcf a731 499c 9c31 4f23 9e31 fb57 a231
000003e0: 0f7a 9c31 b68e a731 5bb9 b131 678b ad31
000003f0: 3794 9e31 eaf6 9f31 dce8 9731 6eb9 9931

exp_avg f4 [128]
-3.2143176e-05 -1.1163861e-05 -2.2797727e-05 -4.608106e-06 4.311924e-06 4.3378245e-06 1.4397124e-05 3.6156928e-06
9.82869e-07 -2.9176803e-05 -3.4183483e-06 7.606771e-07 -1.1886586e-05 2.758201e-06 -7.297253e-06 -6.48982e-07
-5.959532e-06 5.613274e-06 -9.66871e-06 -5.62572e-06 -5.7168645e-06 -1.49684665e-05 -2.7675287e-06 -5.598321e-06
-2.5396725e-05 3.0575445e-06 -1.3215988e-05 -4.403404e-06 7.0133433e-06 -3.6077927e-06 -1.5549751e-05 -6.623432e-07
-1.0275295e-05 9.813483e-07 1.1354554e-06 -6.1260207e-06 4.057886e-06 2.5569968e-06 -5.3939566e-06 -6.2355025e-06
5.682226e-06 -2.690662e-07 1.6396787e-05 1.19111355e-05 -1.7915407e-05 -8.055777e-06 -1.5516545e-07 -3.3345887e-06
-3.938039e-06 -1.6102034e-05 -1.0591505e-06 -8.6334985e-06 -1.3058621e-05 -1.1420007e-05 -1.8031917e-05 7.0303786e-06
-7.4251107e-06 1.1484871e-05 -5.767784e-06 -6.6758407e-06 1.6002141e-05 -5.2951987e-06 -3.6489444e-05 -3.961249e-06
-2.9661185e-06 -1.1175046e-06 -7.2346947e-06 -2.9666928e-06 -1.4306246e-05 3.1401814e-06 -1.6775246e-05 -1.2423125e-05
-6.6972857e-06 -9.034179e-06 1.3505943e-05 -3.9703564e-06 -1.6300335e-05 -4.861263e-07 -1.3412516e-05 -1.2763826e-05
-5.4414727e-06 1.4596029e-05 -1.5182911e-05 -9.277382e-06 -1.8414954e-05 -1.603004e-05 -5.5252344e-06 1.241922e-06
3.97685e-06 -1.02537115e-05 -3.881685e-06 -1.8479066e-05 -1.3800737e-06 -5.0852645e-06 4.2462552e-06 -4.3348564e-06
3.1606812e-06 -5.8088594e-06 2.597063e-06 -1.501171e-05 -2.3699255e-05 -1.7498276e-05 8.580219e-06 7.2650264e-06
-2.2239485e-05 -1.381986e-05 2.3405143e-07 -1.7842744e-05 8.160859e-06 -8.76902e-06 -9.452243e-06 -1.5235364e-05
-1.6169643e-05 -3.274092e-07 8.724016e-06 -2.0120924e-05 -1.0431002e-06 -6.142118e-06 1.3810464e-06 -2.4229106e-05
-5.9422387e-06 5.01459e-06 -8.338525e-06 -5.41701e-06 -8.938656e-06 -8.685233e-06 -6.6727707e-06 4.897307e-06
00000000: 79d1 06b8 6b4c 3bb7 bf3d bfb7 549f 9ab6
00000010: 25af 9036 a18d 9136 2d8b 7137 21a5 7236
00000020: 1feb 8335 b5c0 f4b7 c766 65b6 5531 4c35
00000030: 806c 47b7 8819 3936 edda f4b6 b435 2eb5
00000040: fdf7 c7b6 a859 bc36 cb36 22b7 91c4 bcb6
00000050: 7ed3 bfb6 1321 7bb7 c8b9 39b6 36d9 bbb6
00000060: 0d0b d5b7 3730 4d36 3cba 5db7 f4c0 93b6
00000070: 2954 eb36 681d 72b6 d670 82b7 e1cb 31b5
00000080: 0e64 2cb7 dfb6 8335 f365 9835 1e8e cdb6
00000090: fa28 8836 df98 2b36 bcfd b4b6 8f3a d1b6
000000a0: f3a9 be36 2d74 90b4 d58b 8937 f0d5 4737
000000b0: 0b49 96b7 4c27 07b7 8e9b 26b4 ccc7 5fb6
000000c0: 7f23 84b6 db12 87b7 2228 8eb5 98d8 10b7
000000d0: 5a16 5bb7 8e98 3fb7 3f43 97b7 7ee6 eb36
000000e0: 3725 f9b6 25af 4037 e388 c1b6 0901 e0b6
000000f0: 563c 8637 69ad b1b6 3e0c 19b8 dfea 84b6
00000100: 870d 47b6 2afd 95b5 8ec1 f2b6 6517 47b6
00000110: dc04 70b7 e8bb 5236 91b8 8cb7 ea6c 50b7
00000120: 3fb9 e0b6 8191 17b7 9597 6237 1a39 85b6
00000130: b4bc 88b7 587e 02b5 5106 61b7 3724 56b7
00000140: e595 b6b6 78e1 7437 1bba 7eb7 0da6 1bb7
00000150: d079 9ab7 4078 86b7 6765 b9b6 1db0 a635
00000160: e270 8536 5b07 2cb7 6c3f 82b6 7e03 9bb7
00000170: f93a b9b5 17a2 aab6 0e7b 8e36 2274 91b6
00000180: 171c 5436 b9e9 c2b6 3449 2e36 ceda 7bb7
00000190: c3cd c6b7 43c9 92b7 c3f3 0f37 1ac6 f336
000001a0: ee8e bab7 d9db 67b7 914f 7b34 00ad 95b7
000001b0: 9fea 0837 a71e 13b7 1395 1eb7 649b 7fb7
000001c0: 0ba4 87b7 c7c6 afb4 5d5d 1237 5bc9 a8b7
000001d0: a600 8cb5 6418 ceb6 655c b935 9c3f cbb7
000001e0: 7163 c7b6 0043 a836 b1e5 0bb7 c3c3 b5b6
000001f0: 3cf7 15b7 cbb6 11b7 aae6 dfb6 8c53 a436

exp_avg_sq f4 [128]
1.0011589e-07 2.058842e-08 4.2338392e-08 2.077884e-10 1.639206e-08 6.581474e-07 1.3976532e-07 1.0013729e-07
5.7057173e-07 2.3174309e-07 6.284627e-08 1.6195596e-08 2.6311994e-07 8.0995073e-07 7.674468e-07 1.612558e-06
4.9257716e-07 3.6194933e-07 2.8474042e-07 2.9837615e-08 4.5674135e-08 1.1301849e-08 3.5850192e-10 1.7650156e-07
7.067377e-08 8.471012e-07 2.1528984e-07 4.4294922e-07 6.549815e-07 4.218301e-07 1.2593914e-08 2.3788236e-06
2.6366087e-07 3.462085e-08 4.3630855e-08 2.808272e-08 4.4403063e-07 9.323912e-08 2.456272e-07 4.7505424e-08
5.5455246e-08 8.8437645e-07 6.677917e-07 9.370946e-09 2.7398693e-07 3.1721964e-08 1.0516322e-06 3.1607106e-10
5.378616e-09 5.589549e-09 1.075684e-06 1.2834098e-06 9.777457e-09 9.897647e-07 1.0743385e-06 5.8612287e-08
6.9871334e-08 5.269403e-07 5.8925437e-08 2.2390431e-07 7.4004015e-06 2.1315261e-06 1.2659305e-07 3.6585064e-08
2.559464e-07 1.1341201e-06 2.5437313e-08 1.737442e-07 4.0397033e-08 4.9395794e-07 2.4992826e-07 1.5793945e-07
1.9956639e-07 2.8725974e-08 5.4695755e-07 1.3686358e-10 1.1984774e-07 3.4875505e-09 6.262313e-08 2.0408274e-07
3.000128e-08 1.4167308e-07 6.786744e-08 1.9712228e-07 1.4095595e-08 1.7496193e-08 5.6117667e-08 2.3059021e-09
5.139629e-07 8.179268e-08 2.9274738e-10 2.6653234e-08 8.2169604e-10 1.624735e-08 5.081332e-07 6.752449e-08
1.0635725e-08 1.1486323e-08 2.4586657e-07 8.409654e-08 1.3800319e-07 2.7551655e-08 1.1691544e-06 6.520466e-08
1.352335e-07 1.0421158e-08 3.5608906e-08 9.770955e-09 4.9995855e-08 6.3570536e-07 1.0649712e-08 1.5397615e-06
1.35829605e-08 5.4247757e-08 2.5608475e-07 2.2286542e-08 1.5402954e-08 1.3882787e-08 2.1664343e-07 6.9488195e-08
1.6287641e-08 2.9769365e-07 1.3495915e-07 2.7139808e-07 1.5748954e-06 8.440858e-08 6.175119e-08 1.1963827e-07
00000000: 4bff d633 6ada b032 8ed7 3533 3c77 642f
00000010: 85ce 8c32 8cab 3035 6612 1634 0f0b d733
00000020: 6429 1935 0ed5 7834 1af6 8633 7e1e 8b32
00000030: ee42 8d34 646b 5935 8b02 4e35 126f d835
00000040: a539 0435 f051 c234 6dde 9834 ce26 0033
00000050: 3e2b 4433 0f2a 4232 a916 c52f 6184 3d34
00000060: 51c5 9733 5a64 6335 6c2a 6734 7ace ed34
00000070: fcd1 2f35 e377 e234 9f5c 5832 e1a3 1f36
00000080: 468d 8d34 07b2 1433 a264 3b33 8e3a f132
00000090: 1b63 ee34 c03a c833 bfde 8334 c408 4c33
000000a0: b02d 6e33 e365 6d35 4c42 3335 dbfd 2032
000000b0: 7a18 9334 ab3e 0833 cf25 8d35 0cc3 ad2f
000000c0: cfce b831 310e c031 3960 9035 a041 ac35
000000d0: b6f9 2732 0ed8 8435 fd31 9035 e4bc 7b33
000000e0: 2c0c 9633 1073 0d35 3415 7d33 596a 7034
000000f0: f750 f836 570b 0f36 a2ed 0734 b421 1d33
00000100: 0169 8934 1238 9835 3e81 da32 718e 3a34
00000110: 0281 2d33 8898 0435 e12d 8634 1196 2934
00000120: 6448 5634 16c1 f632 a3d2 1235 ac7b 162f
00000130: 7faf 0034 a3a9 6f31 6e7b 8633 d621 5b34
00000140: c2da 0033 cd1e 1834 85be 9133 8fa8 5334
00000150: 1529 7232 894a 9632 0706 7133 dc75 1e31
00000160: 43f7 0935 00a6 af33 88f0 a02f 15f3 e432
00000170: b8dd 6130 4d90 8b32 a666 0835 fb01 9133
00000180: 6ab8 3632 6255 4532 a5ff 8334 9098 b433
00000190: 072e 1434 bbaa ec32 d7eb 9c35 a406 8c33
000001a0: b434 1134 bd08 3332 68f0 1833 1ddd 2732
000001b0: 06bb 5633 57a5 2a35 eef5 3632 cda9 ce35
000001c0: 7e5a 6932 0afe 6833 057c 8934 a070 bf32
000001d0: 744f 8432 2581 6e32 7e9e 6834 8a39 9533
000001e0: e7e8 8b32 b4d2 9f34 4ae9 1034 abb4 9134
000001f0: fe60 d335 1c44 b533 139c 8433 eb75 0034
